…
2025-12-14 00:08:24,607 - INFO - baseline_lstm | Ep 73/1000 | L: 1.3056/1.6073 | Acc: 40.7%/36.1%
2025-12-14 00:08:25,883 - INFO - baseline_lstm | Ep 74/1000 | L: 1.3010/1.6049 | Acc: 41.7%/36.1%
2025-12-14 00:08:25,883 - INFO - [STOP] Early Stopping: baseline_lstm
2025-12-14 00:08:25,883 - INFO - 
=== 2. HYBRID MODELL INDÍTÁSA ===
2025-12-14 00:08:25,883 - INFO - 
[1] DATA PREPARATION (BS=64, SEQ=100)...
2025-12-14 00:08:25,900 - INFO - 
[2] TRAINING START: HYBRID_MODEL
2025-12-14 00:08:25,900 - INFO - 
--- HYBRID_MODEL STRUKTÚRA ---
2025-12-14 00:08:25,901 - INFO - HybridModel(
  (cnn): Sequential(
    (0): Conv1d(4, 64, kernel_size=(3,), stride=(1,), padding=(1,))
    (1): BatchNorm1d(64, eps=1e-05, momentum=0.1, affine=True, track_running_stats=True)
    (2): ReLU()
    (3): MaxPool1d(kernel_size=2, stride=2, padding=0, dilation=1, ceil_mode=False)
    (4): Conv1d(64, 128, kernel_size=(3,), stride=(1,), padding=(1,))
    (5): BatchNorm1d(128, eps=1e-05, momentum=0.1, affine=True, track_running_stats=True)
    (6): ReLU()
  )
  (pos_encoder): PositionalEncoding()
  (transformer_encoder): TransformerEncoder(
    (layers): ModuleList(
      (0-2): 3 x TransformerEncoderLayer(
        (self_attn): MultiheadAttention(
          (out_proj): NonDynamicallyQuantizableLinear(in_features=128, out_features=128, bias=True)
        )
        (linear1): Linear(in_features=128, out_features=256, bias=True)
        (dropout): Dropout(p=0.22, inplace=False)
        (linear2): Linear(in_features=256, out_features=128, bias=True)
        (norm1): LayerNorm((128,), eps=1e-05, elementwise_affine=True)
        (norm2): LayerNorm((128,), eps=1e-05, elementwise_affine=True)
        (dropout1): Dropout(p=0.22, inplace=False)
        (dropout2): Dropout(p=0.22, inplace=False)
      )
    )
  )
  (fc): Sequential(
    (0): Linear(in_features=128, out_features=64, bias=True)
    (1): GELU(approximate='none')
    (2): Dropout(p=0.22, inplace=False)
    (3): Linear(in_features=64, out_features=6, bias=True)
  )
)
2025-12-14 00:08:25,901 - INFO - ÖSSZES TANÍTHATÓ PARAMÉTER: 432,006
2025-12-14 00:08:25,901 - INFO - ----------------------------------------
2025-12-14 00:08:32,503 - INFO - hybrid_model | Ep 1/1000 | L: 1.8157/1.8226 | Acc: 22.0%/14.5%
2025-12-14 00:08:32,511 - INFO -   -> Saved Best hybrid_model (Acc: 14.5%)
2025-12-14 00:08:34,758 - INFO - hybrid_model | Ep 2/1000 | L: 1.7237/1.7884 | Acc: 20.2%/12.0%
…
