…
2025-12-13 23:29:27,646 - INFO - baseline_lstm | Ep 99/1000 | L: 1.3699/1.5801 | Acc: 38.1%/24.1%
2025-12-13 23:29:28,939 - INFO - baseline_lstm | Ep 100/1000 | L: 1.3352/1.5805 | Acc: 38.9%/24.1%
2025-12-13 23:29:28,939 - INFO - [STOP] Early Stopping: baseline_lstm
2025-12-13 23:29:28,940 - INFO - 
=== 2. HYBRID MODELL INDÍTÁSA ===
2025-12-13 23:29:28,940 - INFO - 
[1] DATA PREPARATION (BS=64, SEQ=100)...
2025-12-13 23:29:28,954 - INFO - 
[2] TRAINING START: HYBRID_MODEL
2025-12-13 23:29:28,954 - INFO - 
--- HYBRID_MODEL STRUKTÚRA ---
2025-12-13 23:29:28,955 - INFO - HybridModel(
  (cnn): Sequential(
    (0): Conv1d(4, 64, kernel_size=(3,), stride=(1,), padding=(1,))
    (1): BatchNorm1d(64, eps=1e-05, momentum=0.1, affine=True, track_running_stats=True)
    (2): ReLU()
    (3): MaxPool1d(kernel_size=2, stride=2, padding=0, dilation=1, ceil_mode=False)
    (4): Conv1d(64, 128, kernel_size=(3,), stride=(1,), padding=(1,))
    (5): BatchNorm1d(128, eps=1e-05, momentum=0.1, affine=True, track_running_stats=True)
    (6): ReLU()
  )
  (pos_encoder): PositionalEncoding()
  (transformer_encoder): TransformerEncoder(
    (layers): ModuleList(
      (0-2): 3 x TransformerEncoderLayer(
        (self_attn): MultiheadAttention(
          (out_proj): NonDynamicallyQuantizableLinear(in_features=128, out_features=128, bias=True)
        )
        (linear1): Linear(in_features=128, out_features=256, bias=True)
        (dropout): Dropout(p=0.22, inplace=False)
        (linear2): Linear(in_features=256, out_features=128, bias=True)
        (norm1): LayerNorm((128,), eps=1e-05, elementwise_affine=True)
        (norm2): LayerNorm((128,), eps=1e-05, elementwise_affine=True)
        (dropout1): Dropout(p=0.22, inplace=False)
        (dropout2): Dropout(p=0.22, inplace=False)
      )
    )
  )
  (fc): Sequential(
    (0): Linear(in_features=128, out_features=64, bias=True)
    (1): GELU(approximate='none')
    (2): Dropout(p=0.22, inplace=False)
    (3): Linear(in_features=64, out_features=6, bias=True)
  )
)
2025-12-13 23:29:28,955 - INFO - ÖSSZES TANÍTHATÓ PARAMÉTER: 432,006
2025-12-13 23:29:28,955 - INFO - ----------------------------------------
2025-12-13 23:29:35,512 - INFO - hybrid_model | Ep 1/1000 | L: 1.7959/1.8721 | Acc: 24.9%/14.5%
2025-12-13 23:29:35,518 - INFO -   -> Saved Best hybrid_model (Acc: 14.5%)
2025-12-13 23:29:37,728 - INFO - hybrid_model | Ep 2/1000 | L: 1.7902/1.7235 | Acc: 23.6%/12.0%
…
